…
dy! model = nn.Sequential( nn.Conv2d(1, 4, 3, 1), nn.BatchNorm2d(4), nn.ReLU(), nn.Conv2d(4, 16, 3, 1), nn.BatchNorm2d(16), nn.ReLU(), nn.Conv2d(16, 32, 3, 1), nn.BatchNorm2d(32), nn.AdaptiveAvgPool2d(1), ) if (pretrained): print(&quot;Loading pretrained model...&quot;) pretrained_weights = torch.load(save_path/&#39;rot_pretrained.pt&#39;) print(model.load_state_dict(pretrained_weights)) return model . . The follow below code snippets are examples of how FastAI creates CNNs. Every model will have a body and a head . body = create_body(arch=simple_arch, pretrained=False) body . . Sequential( (0): Conv2d(1, 4, kernel_size=(3, 3), stride=(1, 1)) (1): BatchNorm2d(4, eps=1e-05, momentum=0.1, affine=True, track_running_stats=True) (2): ReLU() (3): Conv2d(4, 16, kernel_size=(3, 3), stride=(1, 1)) (4): BatchNorm2d(16, eps=1e-05, momentum=0.1, affine=True, track_running_stats=True) (5): ReLU() (6): Conv2d(16, 32, kernel_size=(3, 3), stride=(1, 1)) (7): BatchNorm2d(32, eps=1e-05, momentum=0.1, affine=True, track_running_stats=True) ) . head = create_head(nf=32, n_out=8, lin_ftrs=[]) head . . Sequential( (0): AdaptiveConcatPool2d( (ap): AdaptiveAvgPool2d(output_size=1) (mp): AdaptiveMaxPool2d(output_size=1) ) (1): Flatten(full=False) (2): BatchNorm1d(64, eps=1e-05, momentum=0.1, affine=True, track_running_stats=True) (3): Dropout(p=0.5, inplace=False) (4): Linear(in_features=64, out_features=8, bias=False) ) . # Note that FastAI automatically determines nf for the head! model = create_cnn_model(arch=simple_arch, pretrained=False, n_out=8, lin_ftrs=[]) model . . Sequential( (0): Sequential( (0): Conv2d(1, 4, kernel_size=(3, 3), stride=(1, 1)) (1): BatchNorm2d(4, eps=1e-05, momentum=0.1, affine=True, track_running_stats=True) (2): ReLU() (3): Conv2d(4, 16, kernel_size=(3, 3), stride=(1, 1)) (4): BatchNorm2d(16, eps=1e-05, momentum=0.1, affine=True, track_running_stats=True) (5): ReLU() (6): Conv2d(16, 32, kernel_size=(3, 3), stride=(1, 1)) (7): BatchNorm2d(32, eps=1e-05, momentum=0.1, affine=True, track_running_stats=True) ) (1): Sequential( (0): AdaptiveConcatPool2d( (ap): AdaptiveAvgPool2d(output_size=1) (mp): AdaptiveMaxPool2d(output_size=1) ) (1): Flatten(full=False) (2): BatchNorm1d(64, eps=1e-05, momentum=0.1, affine=True, track_running_stats=True) (3): Dropout(p=0.5, inplace=False) (4): Linear(in_features=64, out_features=8, bias=False) ) ) . PyTorch Rotation/Classification Self-Supervised Dataset . import torchvision tensorToImage = torchvision.transforms.ToPILImage() imageToTensor = torchvision.transforms.ToTensor() . # Uncomment and run the below lines if torchvision has trouble downloading MNIST (in the next cell) # !wget -P data/MNIST/raw/ http://yann.lecun.com/exdb/mnist/train-ima
…
ore import DataLoaders dls = DataLoaders.from_dsets(train_ds, valid_ds).cuda() # Override the show_batch function of dls to the one used in our dataset! dls.show_batch = train_ds.show_batch # We have 8 classes! [0, 1, 2, 3, 4, 5, 6, 7] that correspond to the [0, 45, 90, 135, 180, 225, 270, 315] degrees of rotation. dls.c = 8 dls.show_batch() . FastAI Vision Learner [Rotation] . rotation_head = create_head(nf=32, n_out=8, lin_ftrs=[]) rotation_head . Sequential( (0): AdaptiveConcatPool2d( (ap): AdaptiveAvgPool2d(output_size=1) (mp): AdaptiveMaxPool2d(output_size=1) ) (1): Flatten(full=False) (2): BatchNorm1d(64, eps=1e-05, momentum=0.1, affine=True, track_running_stats=True) (3): Dropout(p=0.5, inplace=False) (4): Linear(in_features=64, out_features=8, bias=False) ) . . Note: We want to measure top_2_accuracy along with regular (top_1) accuracy, because there are hard-cases where it&#8217;s understandable why our model got it wrong. For example: &#8217;0&#8217; rotated 90 or 270 degrees, or &#8217;1&#8217; rotated 0 or 180 degrees. (They can look the same!) . # - A zero rotated 90 or 270 degrees? # - A one rotated 0 or 180 degrees? # etc :P top_2_accuracy = lambda inp, targ: top_k_accuracy(inp, targ, k=2) top_2_accuracy . &lt;function __main__.&lt;lambda&gt;(inp, targ)&gt; . Here, we train a model on the rotation prediction task! . # Note to set a value for lin_ftrs, we use the defined config above. learner = cnn_learner(dls, simple_arch, pretrained=False, loss_func=CrossEntropyLossFlat(), custom_head=rotation_head, metrics=[accuracy, top_2_accuracy]) learner.model . . Sequential( (0): Sequential( (0): Conv2d(1, 4, kernel_size=(3, 3), stride=(1, 1)) (1): BatchNorm2d(4, eps=1e-05, momentum=0.1, affine=True, track_running_stats=True) (2): ReLU() (3): Conv2d(4, 16, kernel_size=(3, 3), stride=(1, 1)) (4): BatchNorm2d(16, eps=1e-05, momentum=0.1, affine=True, track_running_stats=True) (5): ReLU() (6): Conv2d(16, 32, kernel_size=(3, 3), stride=(1, 1)) (7): BatchNorm2d(32, eps=1e-05, momentum=0.1, affine=True, track_running_stats=True) ) (1): Sequential( (0): AdaptiveConcatPool2d( (ap): AdaptiveAvgPool2d(output_size=1) (mp): AdaptiveMaxPool2d(output_size=1) ) (1): Flatten(full=False) (2): BatchNorm1d(64, eps=1e-05, momentum=0.1, affine=True, track_running_stats=True) (3): Dropout(p=0.5, inplace=False) (4): Linear(in_features=64, out_features=8, bias=False) ) ) . learner.summary() . Sequential (Input shape: 64) ============================================================================ Layer (type) Output Shape Param # Trainable ============================================================================ 64 x 4 x 30 x 30 Conv2d 40 True BatchNorm2d 8 True ReLU _______________________________________________
…
932800 | 00:12 | . 3 | 0.678802 | 0.655642 | 0.706700 | 0.949000 | 00:11 | . 4 | 0.629287 | 0.550476 | 0.762000 | 0.968400 | 00:12 | . &lt;/table&gt; &lt;/div&gt; &lt;/div&gt; &lt;/div&gt; &lt;/div&gt; &lt;/div&gt; . Important: We were able to achieve 76.2% top-1 accuracy, and 96.8% top-2 accuracy after just 5 epochs! Now we want to grab our model from our Learner, and save the body of it! . . Note: Our model has two components, the body and the head. model is a list of size 2, where model[0] is the body, and model[1] is the head! . trained_body = learner.model[0] trained_body . Sequential( (0): Conv2d(1, 4, kernel_size=(3, 3), stride=(1, 1)) (1): BatchNorm2d(4, eps=1e-05, momentum=0.1, affine=True, track_running_stats=True) (2): ReLU() (3): Conv2d(4, 16, kernel_size=(3, 3), stride=(1, 1)) (4): BatchNorm2d(16, eps=1e-05, momentum=0.1, affine=True, track_running_stats=True) (5): ReLU() (6): Conv2d(16, 32, kernel_size=(3, 3), stride=(1, 1)) (7): BatchNorm2d(32, eps=1e-05, momentum=0.1, affine=True, track_running_stats=True) ) . . Tip: To save a model in PyTorch, save it&#8217;s state_dict function! You can use model.load_state_dict to re-load the weights. . save_path = Path(&#39;rotation_cps/&#39;) if not save_path.exists(): save_path.mkdir() # Save the rotation-pretraining weights of our model body torch.save(trained_body.state_dict(), save_path/&#3
…
port DataLoaders dls = DataLoaders.from_dsets(train_ds, valid_ds).cuda() dls.show_batch = train_ds.show_batch # We have 10 classes! One for each digit label! dls.c = 10 dls.show_batch() . FastAI Vision Learner [Transfer-Classification] . Here we will toggle pretrained=True to transfer our rotation prediction features, and train on the original 180 labeled data. . classification_head = create_head(nf=32, n_out=10, lin_ftrs=[]) classification_head . . Sequential( (0): AdaptiveConcatPool2d( (ap): AdaptiveAvgPool2d(output_size=1) (mp): AdaptiveMaxPool2d(output_size=1) ) (1): Flatten(full=False) (2): BatchNorm1d(64, eps=1e-05, momentum=0.1, affine=True, track_running_stats=True) (3): Dropout(p=0.5, inplace=False) (4): Linear(in_features=64, out_features=10, bias=False) ) . . Note: We have n_out=10 because of the 10 different digit classes . # pretrained=True will load the saved rotation pretraining weights into our model&#39;s body! # See simple_arch() function definition for more details! learner = cnn_learner(dls, simple_arch, pretrained=True, loss_func=CrossEntropyLossFlat(), custom_head=classification_head, metrics=[accuracy]) learner.model . . Loading pretrained model... &lt;All keys matched successfully&gt; . Sequential( (0): Sequential( (0): Conv2d(1, 4, kernel_size=(3, 3), stride=(1, 1)) (1): BatchNorm2d(4, eps=1e-05, momentum=0.1, affine=True, track_running_stats=True) (2): ReLU() (3): Conv2d(4, 16, kernel_size=(3, 3), stride=(1, 1)) (4): BatchNorm2d(16, eps=1e-05, momentum=0.1, affine=True, track_running_stats=True) (5): ReLU() (6): Conv2d(16, 32, kernel_size=(3, 3), stride=(1, 1)) (7): BatchNorm2d(32, eps=1e-05, momentum=0.1, affine=True, track_running_stats=True) ) (1): Sequential( (0): AdaptiveConcatPool2d( (ap): AdaptiveAvgPool2d(output_size=1) (mp): AdaptiveMaxPool2d(output_size=1) ) (1): Flatten(full=False) (2): BatchNorm1d(64, eps=1e-05, momentum=0.1, affine=True, track_running_stats=True) (3): Dropout(p=0.5, inplace=False) (4): Linear(in_features=64, out_features=10, bias=False) ) ) . . Tip: Freezing a model&#8217;s body after transferring the weights over, allows the new head to get calibrated with the rest of the model! . learner.freeze() . . Note: Looking at the model summary, we can see that the model is frozen up to the new head! Good! . learner.summary() . Sequential (Input shape: 64) =====================================
…
. 4 | 0.935184 | 1.269005 | 0.606100 | 00:01 | . . Important: We were able to get 60.6% accuracy using transfer learning from our pretraining on the rotation prediction task! . FastAI Vision Learner [From Sratch-Classification] . Here we train a model from scratch on the original 180 labeled data. . # pretrained=False, Create the same model as before, but without using the rotation pretraining weights! learner = cnn_learner(dls, simple_arch, pretrained=False, loss_func=CrossEntropyLossFlat(), custom_head=classification_head, metrics=[accuracy]) learner.model . . Sequential( (0): Sequential( (0): Conv2d(1, 4, kernel_size=(3, 3), stride=(1, 1)) (1): BatchNorm2d(4, eps=1e-05, momentum=0.1, affine=True, track_running_stats=True) (2): ReLU() (3): Conv2d(4, 16, kernel_size=(3, 3), stride=(1, 1)) (4): BatchNorm2d(16, eps=1e-05, momentum=0.1, affine=True, track_running_stats=True) (5): ReLU() (6): Conv2d(16, 32, kernel_size=(3, 3), stride=(1, 1)) (7): BatchNorm2d(32, eps=1e-05, momentum=0.1, affine=True, track_running_stats=True) ) (1): Sequential( (0): AdaptiveConcatPool2d( (ap): AdaptiveAvgPool2d(output_size=1) (mp): AdaptiveMaxPool2d(output_size=1) ) (1): Flatten(full=False) (2): BatchNorm1d(64, eps=1e-05, momentum=0.1, affine=True, track_running_stats=True) (3): Dropout(p=0.5, inplace=False) (4): Linear(in_features=64, out_features=10, bias=False) ) ) . learner.summary() . Sequential (Input shape: 64) ============================================================================ Layer (type) Output Shape Param # Trainable ============================================================================ 64 x 4 x 30 x 30 Conv2d 40 True BatchNorm2d 8 True ReLU ______________________________________________
…
