…
            "content": "FastAI Vision Model Creation Methods . from fastai2.vision.all import * . def simple_arch(pretrained=False): # Note that FastAI will automatically cut at pooling layer for the body! model = nn.Sequential( nn.Conv2d(1, 4, 3, 1), nn.BatchNorm2d(4), nn.ReLU(), nn.Conv2d(4, 16, 3, 1), nn.BatchNorm2d(16), nn.ReLU(), nn.Conv2d(16, 32, 3, 1), nn.BatchNorm2d(32), nn.AdaptiveAvgPool2d(1), ) if (pretrained): print(&quot;Loading pretrained model...&quot;) pretrained_weights = torch.load(save_path/&#39;rot_pretrained.pt&#39;) print(model.load_state_dict(pretrained_weights)) return model . body = create_body(arch=simple_arch, pretrained=False) body . Sequential( (0): Conv2d(1, 4, kernel_size=(3, 3), stride=(1, 1)) (1): BatchNorm2d(4, eps=1e-05, momentum=0.1, affine=True, track_running_stats=True) (2): ReLU() (3): Conv2d(4, 16, kernel_size=(3, 3), stride=(1, 1)) (4): BatchNorm2d(16, eps=1e-05, momentum=0.1, affine=True, track_running_stats=True) (5): ReLU() (6): Conv2d(16, 32, kernel_size=(3, 3), stride=(1, 1)) (7): BatchNorm2d(32, eps=1e-05, momentum=0.1, affine=True, track_running_stats=True) ) . head = create_head(nf=32*2, n_out=8, lin_ftrs=[]) head . Sequential( (0): AdaptiveConcatPool2d( (ap): AdaptiveAvgPool2d(output_size=1) (mp): AdaptiveMaxPool2d(output_size=1) ) (1): Flatten(full=False) (2): BatchNorm1d(64, eps=1e-05, momentum=0.1, affine=True, track_running_stats=True) (3): Dropout(p=0.5, inplace=False) (4): Linear(in_features=64, out_features=8, bias=False) ) . # Note that FastAI automatically determines nf for the head! model = create_cnn_model(arch=simple_arch, pretrained=False, n_out=8, lin_ftrs=[]) model . Sequential( (0): Sequential( (0): Conv2d(1, 4, kernel_size=(3, 3), stride=(1, 1)) (1): BatchNorm2d(4, eps=1e-05, momentum=0.1, affine=True, track_running_stats=True) (2): ReLU() (3): Conv2d(4, 16, kernel_size=(3, 3), stride=(1, 1)) (4): BatchNorm2d(16, eps=1e-05, momentum=0.1, affine=True, track_running_stats=True) (5): ReLU() (6): Conv2d(16, 32, kernel_size=(3, 3), stride=(1, 1)) (7): BatchNorm2d(32, eps=1e-05, momentum=0.1, affine=True, track_running_stats=True) ) (1): Sequential( (0): AdaptiveConcatPool2d( (ap): AdaptiveAvgPool2d(output_size=1) (mp): AdaptiveMaxPool2d(output_size=1) ) (1): Flatten(full=False) (2): BatchNorm1d(64, eps=1e-05, momentum=0.1, affine=True, track_running_stats=True) (3): Dropout(p=0.5, inplace=False) (4): Linear(in_features=64, out_features=8, bias=False) ) ) . PyTorch Rotation/Classification Self-Supervised Dataset . import torchvision # Functions to convert between Torch Tensors and PIL Images tensorToImage = torchvision.transforms.ToPILImage() imageToTensor = torchvision.transforms.ToTensor() . # Download MNIST dataset from PyTorch if not downloaded already! torchvision.datasets.MNIST(&#39;data/&#39;, 
…
 cnn_config(lin_ftrs=[]) head_config . {&#39;lin_ftrs&#39;: []} . # Top_2 accuracy is a nice metric for hard-cases: # - A zero rotated 90 or 270 degrees? # - A one rotated 0 or 180 degrees? # etc :P top_2_accuracy = lambda inp, targ: top_k_accuracy(inp, targ, k=2) top_2_accuracy . &lt;function __main__.&lt;lambda&gt;(inp, targ)&gt; . # Note to set a value for lin_ftrs, we use the defined config above. learner = cnn_learner(dls, simple_arch, pretrained=False, loss_func=CrossEntropyLossFlat(), config=head_config, metrics=[accuracy, top_2_accuracy]) learner.model . Sequential( (0): Sequential( (0): Conv2d(1, 4, kernel_size=(3, 3), stride=(1, 1)) (1): BatchNorm2d(4, eps=1e-05, momentum=0.1, affine=True, track_running_stats=True) (2): ReLU() (3): Conv2d(4, 16, kernel_size=(3, 3), stride=(1, 1)) (4): BatchNorm2d(16, eps=1e-05, momentum=0.1, affine=True, track_running_stats=True) (5): ReLU() (6): Conv2d(16, 32, kernel_size=(3, 3), stride=(1, 1)) (7): BatchNorm2d(32, eps=1e-05, momentum=0.1, affine=True, track_running_stats=True) ) (1): Sequential( (0): AdaptiveConcatPool2d( (ap): AdaptiveAvgPool2d(output_size=1) (mp): AdaptiveMaxPool2d(output_size=1) ) (1): Flatten(full=False) (2): BatchNorm1d(64, eps=1e-05, momentum=0.1, affine=True, track_running_stats=True) (3): Dropout(p=0.5, inplace=False) (4): Linear(in_features=64, out_features=8, bias=False) ) ) . learner.summary() . Sequential (Input shape: [&#39;64 x 1 x 32 x 32&#39;]) ================================================================ Layer (type) Output Shape Param # Trainable ================================================================ Conv2d 64 x 4 x 30 x 30 40 True ________________________________________________________________ Batc
…
0867641568184) . learner.fit_one_cycle(5, lr_max=3e-2) . epoch train_loss valid_loss accuracy &lt;/th&gt; time &lt;/tr&gt; &lt;/thead&gt; 0 | 0.929351 | 1.918975 | 0.411600 | 0.743800 | 00:11 | . 1 | 0.804056 | 1.709006 | 0.423700 | 0.752600 | 00:11 | . 2 | 0.731988 | 1.504266 | 0.533700 | 0.814900 | 00:11 | . 3 | 0.606261 | 0.902209 | 0.676300 | 0.856000 | 00:11 | . 4 | 0.565724 | 0.485181 | 0.796600 | 0.971800 | 00:11 | . &lt;/table&gt; &lt;/div&gt; &lt;/div&gt; &lt;/div&gt; &lt;/div&gt; &lt;/div&gt; # Access the body of our model trained_body = learner.model[0] trained_body . Sequential( (0): Conv2d(1, 4, kernel_size=(3, 3), stride=(1, 1)) (1): BatchNorm2d(4, eps=1e-05, momentum=0.1, affine=True, track_running_stats=True) (2): ReLU() (3): Conv2d(4, 16, kernel_size=(3, 3), stride=(1, 1)) (4): BatchNorm2d(16, eps=1e-05, momentum=0.1, affine=True, track_running_stats=True) (5): ReLU() (6): Conv2d(16, 32, kernel_size=(3, 3), stride=(1, 1)) (7): BatchNorm2d(32, eps=1e-05, momentum=0.1, affine=True, track_running_stats=True) ) . # Make save directory if it doesn&#39;t exist save_path = Path(&#39;rotation_cps/&#39;) if not save_path.exists(): save_path.mkdir() # Save the rotation-pretraining weights of our model body torch.save(trained_body.state_dict(), save_path/&#39;rot_pretrained.pt&#39;) . Switch to Classification . # Use 0.5% classification label
…
rom_dsets(train_ds, valid_ds).cuda() dls.show_batch = train_ds.show_batch # We have 10 classes! One for each digit label! dls.c = 10 dls.show_batch() . FastAI Vision Learner [Transfer-Classification] . # pretrained=True will load the saved rotation pretraining weights into our model&#39;s body! # See simple_arch() function definition for more details! learner = cnn_learner(dls, simple_arch, pretrained=True, loss_func=CrossEntropyLossFlat(), config=head_config, metrics=[accuracy]) learner.model . Loading pretrained model... &lt;All keys matched successfully&gt; . Sequential( (0): Sequential( (0): Conv2d(1, 4, kernel_size=(3, 3), stride=(1, 1)) (1): BatchNorm2d(4, eps=1e-05, momentum=0.1, affine=True, track_running_stats=True) (2): ReLU() (3): Conv2d(4, 16, kernel_size=(3, 3), stride=(1, 1)) (4): BatchNorm2d(16, eps=1e-05, momentum=0.1, affine=True, track_running_stats=True) (5): ReLU() (6): Conv2d(16, 32, kernel_size=(3, 3), stride=(1, 1)) (7): BatchNorm2d(32, eps=1e-05, momentum=0.1, affine=True, track_running_stats=True) ) (1): Sequential( (0): AdaptiveConcatPool2d( (ap): AdaptiveAvgPool2d(output_size=1) (mp): AdaptiveMaxPool2d(output_size=1) ) (1): Flatten(full=False) (2): BatchNorm1d(64, eps=1e-05, momentum=0.1, affine=True, track_running_stats=True) (3): Dropout(p=0.5, inplace=False) (4): Linear(in_features=64, out_features=10, bias=False) ) ) . learner.freeze() . learner.summary() . Sequential (Input shape: [&#39;64 x 1 x 32 x 32&#39;]) ================================================================ Layer (type) Output Shape Param # Trainable ================================================================ Conv2d 64 x 4 x 30 x 30 40 False ________________________________________________
…
n_loss valid_loss accuracy time . 0 | 1.172640 | 1.688169 | 0.393100 | 00:02 | . 1 | 1.195317 | 1.599232 | 0.433300 | 00:02 | . 2 | 1.171542 | 1.514609 | 0.472800 | 00:02 | . 3 | 1.126831 | 1.452433 | 0.504500 | 00:01 | . 4 | 1.079731 | 1.405145 | 0.538200 | 00:02 | . FastAI Vision Learner [Fully-Classification] . # pretrained=False, Create the same model as before, but without using the rotation pretraining weights! learner = cnn_learner(dls, simple_arch, pretrained=False, loss_func=CrossEntropyLossFlat(), config=head_config, metrics=[accuracy]) learner.model . Sequential( (0): Sequential( (0): Conv2d(1, 4, kernel_size=(3, 3), stride=(1, 1)) (1): BatchNorm2d(4, eps=1e-05, momentum=0.1, affine=True, track_running_stats=True) (2): ReLU() (3): Conv2d(4, 16, kernel_size=(3, 3), stride=(1, 1)) (4): BatchNorm2d(16, eps=1e-05, momentum=0.1, affine=True, track_running_stats=True) (5): ReLU() (6): Conv2d(16, 32, kernel_size=(3, 3), stride=(1, 1)) (7): BatchNorm2d(32, eps=1e-05, momentum=0.1, affine=True, track_running_stats=True) ) (1): Sequential( (0): AdaptiveConcatPool2d( (ap): AdaptiveAvgPool2d(output_size=1) (mp): AdaptiveMaxPool2d(output_size=1) ) (1): Flatten(full=False) (2): BatchNorm1d(64, eps=1e-05, momentum=0.1, affine=True, track_running_stats=True) (3): Dropout(p=0.5, inplace=False) (4): Linear(in_features=64, out_features=10, bias=False) ) ) . learner.summary() . Sequential (Input shape: [&#39;64 x 1 x 32 x 32&#39;]) ================================================================ Layer (type) Output Shape Param # Trainable ================================================================ Conv2d 64 x 4 x 30 x 30 40 True ________________________________________________________________ Bat
…
