…
Sequential( nn.Conv2d(1, 4, 3, 1), nn.BatchNorm2d(4), nn.ReLU(), nn.Conv2d(4, 16, 3, 1), nn.BatchNorm2d(16), nn.ReLU(), nn.Conv2d(16, 32, 3, 1), nn.BatchNorm2d(32), nn.AdaptiveAvgPool2d(1), ) if (pretrained): print(&quot;Loading pretrained model...&quot;) pretrained_weights = torch.load(save_path/&#39;rot_pretrained.pt&#39;) print(model.load_state_dict(pretrained_weights)) return model . . The follow below code snippets are examples of how FastAI creates CNNs. Every model will have a body and a head . #collapse-hide body = create_body(arch=simple_arch, pretrained=False) body . . Sequential( (0): Conv2d(1, 4, kernel_size=(3, 3), stride=(1, 1)) (1): BatchNorm2d(4, eps=1e-05, momentum=0.1, affine=True, track_running_stats=True) (2): ReLU() (3): Conv2d(4, 16, kernel_size=(3, 3), stride=(1, 1)) (4): BatchNorm2d(16, eps=1e-05, momentum=0.1, affine=True, track_running_stats=True) (5): ReLU() (6): Conv2d(16, 32, kernel_size=(3, 3), stride=(1, 1)) (7): BatchNorm2d(32, eps=1e-05, momentum=0.1, affine=True, track_running_stats=True) ) . #collapse-hide head = create_head(nf=32*2, n_out=8, lin_ftrs=[]) head . . Sequential( (0): AdaptiveConcatPool2d( (ap): AdaptiveAvgPool2d(output_size=1) (mp): AdaptiveMaxPool2d(output_size=1) ) (1): Flatten(full=False) (2): BatchNorm1d(64, eps=1e-05, momentum=0.1, affine=True, track_running_stats=True) (3): Dropout(p=0.5, inplace=False) (4): Linear(in_features=64, out_features=8, bias=False) ) . #collapse-hide # Note that FastAI automatically determines nf for the head! model = create_cnn_model(arch=simple_arch, pretrained=False, n_out=8, lin_ftrs=[]) model . . Sequential( (0): Sequential( (0): Conv2d(1, 4, kernel_size=(3, 3), stride=(1, 1)) (1): BatchNorm2d(4, eps=1e-05, momentum=0.1, affine=True, track_running_stats=True) (2): ReLU() (3): Conv2d(4, 16, kernel_size=(3, 3), stride=(1, 1)) (4): BatchNorm2d(16, eps=1e-05, momentum=0.1, affine=True, track_running_stats=True) (5): ReLU() (6): Conv2d(16, 32, kernel_size=(3, 3), stride=(1, 1)) (7): BatchNorm2d(32, eps=1e-05, momentum=0.1, affine=True, track_running_stats=True) ) (1): Sequential( (0): AdaptiveConcatPool2d( (ap): AdaptiveAvgPool2d(output_size=1) (mp): AdaptiveMaxPool2d(output_size=1) ) (1): Flatten(full=False) (2): BatchNorm1d(64, eps=1e-05, momentum=0.1, affine=True, track_running_stats=True) (3): Dropout(p=0.5, inplace=False) (4): Linear(in_features=64, out_features=8, bias=False) ) ) . PyTorch Rotation/Classification Self-Supervised Dataset . # Functions to convert between Torch Tensors and PIL Images import torchvision tensorToImage = torchvision.transforms.ToPILImage() imageToTensor = torchvision.transforms.ToTensor() . # Download MNIST dataset from PyTorch if not downloaded already! torchvision.datasets.MNIST(&#39;data/&#39;, 
…
ccuracy is a nice metric for hard-cases: # - A zero rotated 90 or 270 degrees? # - A one rotated 0 or 180 degrees? # etc :P top_2_accuracy = lambda inp, targ: top_k_accuracy(inp, targ, k=2) top_2_accuracy . &lt;function __main__.&lt;lambda&gt;(inp, targ)&gt; . Here, we train a model on the rotation prediction task! . #collapse-show # Note to set a value for lin_ftrs, we use the defined config above. learner = cnn_learner(dls, simple_arch, pretrained=False, loss_func=CrossEntropyLossFlat(), config=head_config, metrics=[accuracy, top_2_accuracy]) learner.model . . Sequential( (0): Sequential( (0): Conv2d(1, 4, kernel_size=(3, 3), stride=(1, 1)) (1): BatchNorm2d(4, eps=1e-05, momentum=0.1, affine=True, track_running_stats=True) (2): ReLU() (3): Conv2d(4, 16, kernel_size=(3, 3), stride=(1, 1)) (4): BatchNorm2d(16, eps=1e-05, momentum=0.1, affine=True, track_running_stats=True) (5): ReLU() (6): Conv2d(16, 32, kernel_size=(3, 3), stride=(1, 1)) (7): BatchNorm2d(32, eps=1e-05, momentum=0.1, affine=True, track_running_stats=True) ) (1): Sequential( (0): AdaptiveConcatPool2d( (ap): AdaptiveAvgPool2d(output_size=1) (mp): AdaptiveMaxPool2d(output_size=1) ) (1): Flatten(full=False) (2): BatchNorm1d(64, eps=1e-05, momentum=0.1, affine=True, track_running_stats=True) (3): Dropout(p=0.5, inplace=False) (4): Linear(in_features=64, out_features=8, bias=False) ) ) . #collapse-hide learner.summary() . . Sequential (Input shape: [&#39;64 x 1 x 32 x 32&#39;]) ================================================================ Layer (type) Output Shape Param # Trainable ================================================================ Conv2d 64 x 4 x 30 x 30 40 True ____________________________________________________
…
57100 | 0.962500 | 00:11 | . 4 | 0.578483 | 0.489926 | 0.799200 | 0.972800 | 00:11 | . &lt;/table&gt; &lt;/div&gt; &lt;/div&gt; &lt;/div&gt; &lt;/div&gt; &lt;/div&gt; . Important: We were able to achieve 79.9% top-1 accuracy, and 97.3% top-2 accuracy after just 5 epochs! Now we want to grab our model from our Learner, and save the body of it! . . Note: Our model has two components, the body and the head. model is a list of size 2, where model[0] is the body, and model[1] is the head! . #collapse-show # Access the body of our model trained_body = learner.model[0] trained_body . . Sequential( (0): Conv2d(1, 4, kernel_size=(3, 3), stride=(1, 1)) (1): BatchNorm2d(4, eps=1e-05, momentum=0.1, affine=True, track_running_stats=True) (2): ReLU() (3): Conv2d(4, 16, kernel_size=(3, 3), stride=(1, 1)) (4): BatchNorm2d(16, eps=1e-05, momentum=0.1, affine=True, track_running_stats=True) (5): ReLU() (6): Conv2d(16, 32, kernel_size=(3, 3), stride=(1, 1)) (7): BatchNorm2d(32, eps=1e-05, momentum=0.1, affine=True, track_running_stats=True) ) . . Tip: To save a model in PyTorch, save it&#8217;s state_dict function! You can use model.load_state_dict to re-load the weights. . # Make save directory if it doesn&#39;t exist save_path = Path(&#39;rotation_cps/&#39;) if not save_path.exists(): save_path.mkdir() # Save the rotation-pretraining weights of our model body torch
…
ch() . FastAI Vision Learner [Transfer-Classification] . Here we will toggle pretrained=True to transfer our rotation prediction features, and train on the original 180 labeled data. . #collapse-show # pretrained=True will load the saved rotation pretraining weights into our model&#39;s body! # See simple_arch() function definition for more details! learner = cnn_learner(dls, simple_arch, pretrained=True, loss_func=CrossEntropyLossFlat(), config=head_config, metrics=[accuracy]) learner.model . . Loading pretrained model... &lt;All keys matched successfully&gt; . Sequential( (0): Sequential( (0): Conv2d(1, 4, kernel_size=(3, 3), stride=(1, 1)) (1): BatchNorm2d(4, eps=1e-05, momentum=0.1, affine=True, track_running_stats=True) (2): ReLU() (3): Conv2d(4, 16, kernel_size=(3, 3), stride=(1, 1)) (4): BatchNorm2d(16, eps=1e-05, momentum=0.1, affine=True, track_running_stats=True) (5): ReLU() (6): Conv2d(16, 32, kernel_size=(3, 3), stride=(1, 1)) (7): BatchNorm2d(32, eps=1e-05, momentum=0.1, affine=True, track_running_stats=True) ) (1): Sequential( (0): AdaptiveConcatPool2d( (ap): AdaptiveAvgPool2d(output_size=1) (mp): AdaptiveMaxPool2d(output_size=1) ) (1): Flatten(full=False) (2): BatchNorm1d(64, eps=1e-05, momentum=0.1, affine=True, track_running_stats=True) (3): Dropout(p=0.5, inplace=False) (4): Linear(in_features=64, out_features=10, bias=False) ) ) . . Tip: Freezing a model&#8217;s body after transferring the weights over, allows the new head to get calibrated with the rest of the model! . learner.freeze() . . Note: Looking at the model summary, we can see that the model is frozen up to the new head! Good! . #collapse-show learner.summary() . . Sequential (Input shape: [&#39;64 x 1 x 32 x 32&#
…
2 | . 4 | 0.976209 | 1.245139 | 0.617300 | 00:01 | . . Important: We were able to get 61.7% accuracy using transfer learning from our pretraining on the rotation prediction task! . FastAI Vision Learner [Fully-Classification] . Here we train a model from scratch on the original 180 labeled data. . #collapse-show # pretrained=False, Create the same model as before, but without using the rotation pretraining weights! learner = cnn_learner(dls, simple_arch, pretrained=False, loss_func=CrossEntropyLossFlat(), config=head_config, metrics=[accuracy]) learner.model . . Sequential( (0): Sequential( (0): Conv2d(1, 4, kernel_size=(3, 3), stride=(1, 1)) (1): BatchNorm2d(4, eps=1e-05, momentum=0.1, affine=True, track_running_stats=True) (2): ReLU() (3): Conv2d(4, 16, kernel_size=(3, 3), stride=(1, 1)) (4): BatchNorm2d(16, eps=1e-05, momentum=0.1, affine=True, track_running_stats=True) (5): ReLU() (6): Conv2d(16, 32, kernel_size=(3, 3), stride=(1, 1)) (7): BatchNorm2d(32, eps=1e-05, momentum=0.1, affine=True, track_running_stats=True) ) (1): Sequential( (0): AdaptiveConcatPool2d( (ap): AdaptiveAvgPool2d(output_size=1) (mp): AdaptiveMaxPool2d(output_size=1) ) (1): Flatten(full=False) (2): BatchNorm1d(64, eps=1e-05, momentum=0.1, affine=True, track_running_stats=True) (3): Dropout(p=0.5, inplace=False) (4): Linear(in_features=64, out_features=10, bias=False) ) ) . #collapse-hide learner.summary() . . Sequential (Input shape: [&#39;64 x 1 x 32 x 32&#39;]) ================================================================ Layer (type) Output Shape Param # Trainable ================================================================ Conv2d 64 x 4 x 30 x 30 40 True ___________________________________________________
…
