…
&lt;span class=&quot;p&quot;&gt;,&lt;/span&gt; &lt;span class=&quot;n&quot;&gt;pretrained&lt;/span&gt;&lt;span class=&quot;o&quot;&gt;=&lt;/span&gt;&lt;span class=&quot;kc&quot;&gt;False&lt;/span&gt;&lt;span class=&quot;p&quot;&gt;)&lt;/span&gt;
&lt;span class=&quot;n&quot;&gt;body&lt;/span&gt;
&lt;/pre&gt;&lt;/div&gt;

    &lt;/div&gt;
&lt;/div&gt;
&lt;/div&gt;

&lt;div class=&quot;output_wrapper&quot;&gt;
&lt;div class=&quot;output&quot;&gt;

&lt;div class=&quot;output_area&quot;&gt;



&lt;div class=&quot;output_text output_subarea output_execute_result&quot;&gt;
&lt;pre&gt;Sequential(
  (0): Conv2d(1, 4, kernel_size=(3, 3), stride=(1, 1))
  (1): BatchNorm2d(4, eps=1e-05, momentum=0.1, affine=True, track_running_stats=True)
  (2): ReLU()
  (3): Conv2d(4, 16, kernel_size=(3, 3), stride=(1, 1))
  (4): BatchNorm2d(16, eps=1e-05, momentum=0.1, affine=True, track_running_stats=True)
  (5): ReLU()
  (6): Conv2d(16, 32, kernel_size=(3, 3), stride=(1, 1))
  (7): BatchNorm2d(32, eps=1e-05, momentum=0.1, affine=True, track_running_stats=True)
)&lt;/pre&gt;
&lt;/div&gt;

&lt;/div&gt;

&lt;/div&gt;
&lt;/div&gt;

&lt;/div&gt;
    

    
    
&lt;div class=&quot;cell border-box-sizing code_cell rendered&quot;&gt;
&lt;div class=&quot;input&quot;&gt;

&lt;div class=&quot;inner_cell&quot;&gt;
    &lt;div class=&quot;input_area&quot;&gt;
&lt;div class=&quot; highlight hl-ipyth
…
ot;mi&quot;&gt;8&lt;/span&gt;&lt;span class=&quot;p&quot;&gt;,&lt;/span&gt; &lt;span class=&quot;n&quot;&gt;lin_ftrs&lt;/span&gt;&lt;span class=&quot;o&quot;&gt;=&lt;/span&gt;&lt;span class=&quot;p&quot;&gt;[])&lt;/span&gt;
&lt;span class=&quot;n&quot;&gt;model&lt;/span&gt;
&lt;/pre&gt;&lt;/div&gt;

    &lt;/div&gt;
&lt;/div&gt;
&lt;/div&gt;

&lt;div class=&quot;output_wrapper&quot;&gt;
&lt;div class=&quot;output&quot;&gt;

&lt;div class=&quot;output_area&quot;&gt;



&lt;div class=&quot;output_text output_subarea output_execute_result&quot;&gt;
&lt;pre&gt;Sequential(
  (0): Sequential(
    (0): Conv2d(1, 4, kernel_size=(3, 3), stride=(1, 1))
    (1): BatchNorm2d(4, eps=1e-05, momentum=0.1, affine=True, track_running_stats=True)
    (2): ReLU()
    (3): Conv2d(4, 16, kernel_size=(3, 3), stride=(1, 1))
    (4): BatchNorm2d(16, eps=1e-05, momentum=0.1, affine=True, track_running_stats=True)
    (5): ReLU()
    (6): Conv2d(16, 32, kernel_size=(3, 3), stride=(1, 1))
    (7): BatchNorm2d(32, eps=1e-05, momentum=0.1, affine=True, track_running_stats=True)
  )
  (1): Sequential(
    (0): AdaptiveConcatPool2d(
      (ap): AdaptiveAvgPool2d(output_size=1)
      (mp): AdaptiveMaxPool2d(output_size=1)
    )
    (1): Flatten(full=False)
    (2): BatchNorm1d(64, eps=1e-05, momentum=0.1, affine=True, track_running_stats=True)
    (3): Dropout(p=0.5, inplace=False)
    (4): Linear(in_features=64, out_features=8, bias=False)
  )
)&lt;/pre&gt;
&lt;/div&gt;

&lt;/div&gt;

&lt;/div&gt;
&lt;/div&gt;

&lt;/div&gt;
    

&lt;div class=&quot;cell border-box-sizing text_cell rendered&quot;&gt;&lt;div class=&quot;inner_cell&quot;&gt;
&lt;div class=&quot;text_cell_render border-box-sizing rendered_html&quot;&gt;
&lt;h1 id=&quot;PyTorch-Rotation/Classification-Self-Supervised-Dataset&quot;&gt;PyTorch Rotation/Classification Self-Supervised Dataset&lt;a class=&quot;anchor-link&quot; href=&quot;#PyTorch-Rotation/Classification-Self-Supervised-Dataset&quot;&gt; &lt;/a&gt;&lt;/h1&gt;
…
&lt;span class=&quot;n&quot;&gt;learner&lt;/span&gt;&lt;span class=&quot;o&quot;&gt;.&lt;/span&gt;&lt;span class=&quot;n&quot;&gt;model&lt;/span&gt;
&lt;/pre&gt;&lt;/div&gt;

    &lt;/div&gt;
&lt;/div&gt;
&lt;/div&gt;

&lt;div class=&quot;output_wrapper&quot;&gt;
&lt;div class=&quot;output&quot;&gt;

&lt;div class=&quot;output_area&quot;&gt;

&lt;div class=&quot;output_subarea output_stream output_stdout output_text&quot;&gt;
&lt;pre&gt;Loading pretrained model...
&amp;lt;All keys matched successfully&amp;gt;
&lt;/pre&gt;
&lt;/div&gt;
&lt;/div&gt;

&lt;div class=&quot;output_area&quot;&gt;



&lt;div class=&quot;output_text output_subarea output_execute_result&quot;&gt;
&lt;pre&gt;Sequential(
  (0): Sequential(
    (0): Conv2d(1, 4, kernel_size=(3, 3), stride=(1, 1))
    (1): BatchNorm2d(4, eps=1e-05, momentum=0.1, affine=True, track_running_stats=True)
    (2): ReLU()
    (3): Conv2d(4, 16, kernel_size=(3, 3), stride=(1, 1))
    (4): BatchNorm2d(16, eps=1e-05, momentum=0.1, affine=True, track_running_stats=True)
    (5): ReLU()
    (6): Conv2d(16, 32, kernel_size=(3, 3), stride=(1, 1))
    (7): BatchNorm2d(32, eps=1e-05, momentum=0.1, affine=True, track_running_stats=True)
  )
  (1): Sequential(
    (0): AdaptiveConcatPool2d(
      (ap): AdaptiveAvgPool2d(output_size=1)
      (mp): AdaptiveMaxPool2d(output_size=1)
    )
    (1): Flatten(full=False)
    (2): BatchNorm1d(64, eps=1e-05, momentum=0.1, affine=True, track_running_stats=True)
    (3): Dropout(p=0.5, inplace=False)
    (4): Linear(in_features=64, out_features=10, bias=False)
  )
)&lt;/pre&gt;
&lt;/div&gt;

&lt;/div&gt;

&lt;/div&gt;
&lt;/div&gt;

&lt;/div&gt;
    

    
    
&lt;div class=&quot;cell border-box-sizing code_cell rendered&quot;&gt;
&lt;div class=&quot;input&quot;&gt;

&lt;div class=&quot;inner_cell&quot;&gt;
    &lt;div class=&quot;input_area&quot;&gt;
&lt;div class=&quot; highlight hl-ipython3&quot;&gt;&lt;pre&gt;&lt;span&gt;&lt;/span&gt;&lt;span class=&quot;n&quot;&gt;learner&lt;/span&gt;&lt;span class=&quot;o&quot;&gt;.&lt;/span&gt;&lt;span class=&quot;n&quot;&gt;freeze&lt;/span&gt;&lt;span class=&quot;p&quot;&gt;()&lt;/span&gt;
…
